artifacts/models_lag/LSTM_base.pt (torch, 336819 bytes, 5 tensors)

lstm.weight_ih_l0 f4 [512, 33]
000000 6b 9a 73 bd a0 09 60 bc b3 c4 95 3d fe c6 b8 3d
       -0.059473436 -0.01367417 0.07312908 0.0902233
000010 3a a0 6c bd 73 8f 6e 3d 0a f7 8c 3d 44 04 87 3d
       -0.05776999 0.058242273 0.068830565 0.065926105
000020 4d 2e 97 bd 8a 46 29 3d 86 9f 62 bc e9 89 26 3d
       -0.07381878 0.041327037 -0.013831979 0.040658865
000030 74 e1 b9 3d 95 35 12 3d 87 4b 34 bc af 82 87 3d
       0.09076205 0.03569563 -0.011004335 0.06616723
000040 ed 0a 50 ba 78 16 48 3d e7 44 d7 3c 97 3b 92 3d
       -0.00079361984 0.048849553 0.026277972 0.07140272
000050 a0 38 b9 3d f1 6d a8 3d 9c 7f 18 bd 1b 51 0b 3d
       0.090440035 0.08224095 -0.037231073 0.034012895
000060 30 ba 89 3d 07 02 4e bd 91 b4 58 bc c8 3a 53 bd
       0.067249656 -0.050294902 -0.013226644 -0.05156973
000070 c4 98 98 bc 96 1e 26 3d 4f 1a dc bc bf 26 53 bc
       -0.018627532 0.040556513 -0.026868014 -0.012887656
000080 3a df 87 3a c8 e1 65 bd e1 0d 1c 3d 59 a5 f1 bc
       0.0010366209 -0.056123525 0.038099173 -0.02949779
000090 8f 19 ac 3d c5 64 c2 3d 12 39 7d bd b3 11 69 3c
       0.084033124 0.094918765 -0.061822005 0.014225411
0000a0 ed 5f 97 3d 0a 8f 8b bd b5 b4 72 bc 0f d5 47 3c
       0.07391343 -0.06814392 -0.014813592 0.012196793
0000b0 b2 3f c2 3d be 5d 7d bd 5f d8 8b 3d f8 90 bc 3b
       0.09484805 -0.061856978 0.06828379 0.0057545863
0000c0 a0 da 8d bb bc 9a 4d 39 2f bf 61 3c cf 80 1c 3c
       -0.0043290406 0.00019607967 0.013778492 0.009552195
0000d0 3d 62 8f 3d bb 0c 27 3d 9f 07 11 ba eb 41 e9 bc
       0.07001159 0.040783625 -0.00055324467 -0.028473815
0000e0 89 fa d2 3d e6 12 c2 bc e0 0d a2 3d 9c 43 ab 3d
       0.10301692 -0.023690652 0.07912803 0.08362505
0000f0 7b d4 a0 3c bc 3c 92 3d 2c 19 ad 3a ae be 47 bd
       0.019632569 0.071404904 0.0013206354 -0.04876583
000100 ec c3 17 3d da ee 9a 3d d6 65 b8 3c bc 93 f7 3c
       0.03705208 0.075650886 0.022509497 0.030221812
000110 6c b1 1e 3d ae e4 f7 3c b8 af 47 bd 95 85 5d bc
       0.03874342 0.03026041 -0.048751563 -0.013520618
000120 cf 93 4a 3c 8d cc d2 3d 7f b9 a9 3b 48 06 8f 3d
       0.012364342 0.10292921 0.0051795836 0.0698362
000130 9b a2 51 3d f5 11 32 3d c5 b2 73 bc 5f 43 1c bd
       0.051180463 0.043474156 -0.014874165 -0.038150188
000140 f2 34 25 3d b5 4f d9 3b a1 c2 3d 3d 56 2c 5a bd
       0.040333696 0.0066318163 0.04632819 -0.05326494
000150 99 0b db 3d ce ea 16 bd 41 ab 2e 3d 21 38 8c 3d
       0.106955715 -0.03684502 0.04264379 0.06846643
000160 68 55 d3 3d 0b 3e fc bc c6 16 b7 3d c1 5d 03 bd
       0.10319024 -0.030791303 0.089398906 -0.032071833
000170 77 06 d3 3d 52 a3 a4 3d 64 06 3a 3b 57 10 92 3d
       0.103039674 0.080389634 0.0028385157 0.07132023
000180 fa 67 88 3d 65 7d 93 3d 67 1d 86 bc dc 67 27 3d
       0.06660457 0.072016515 -0.016371442 0.040870532
000190 70 95 c9 3d aa 19 59 3d 1b bb 85 3d dc d3 87 bc
       0.09842956 0.05300299 0.06529828 -0.016580515
0001a0 aa e5 43 bd c3 d5 36 bd 1b fc 0a 3d 84 9f 24 bb
       -0.047826447 -0.044637453 0.033931833 -0.0025119493
0001b0 b2 bc 99 3b 30 fc c6 3d fb ea c3 bc 8e ab d5 3d
       0.0046916837 0.0971607 -0.023915758 0.10433112
0001c0 d6 a0 8a 3d 82 01 01 bd a4 b9 d0 3d 1f 68 d4 bc
       0.06768958 -0.03149558 0.10191658 -0.025928555
0001d0 42 14 98 3c 99 44 85 3d d0 52 dd 3d c8 39 e0 3d
       0.018564347 0.065072246 0.10806811 0.10948521
0001e0 0c 29 5c 3d 59 c8 73 3d a2 2f 87 3d 10 0d 98 bc
       0.053750083 0.05951724 0.06600882 -0.018560916
0001f0 8e a3 93 bc fe 73 6f bd e9 da cb 3d c8 aa e2 3d
       -0.018022325 -0.05846023 0.09953863 0.1106773
000200 92 ae 2d bc 2d 80 61 bc a7 fd 21 bd 01 f0 99 3a
       -0.010600703 -0.01376347 -0.039548542 0.00117445
000210 80 e9 b4 3d d5 a8 f0 ba cf 0d 02 3d 31 01 c6 3c
       0.08833599 -0.0018360863 0.03175145 0.02417049
000220 62 fa c4 3b fe ae 50 bd 8e 0f 35 bc f7 06 d5 bb
       0.0060112933 -0.050948136 -0.011051072 -0.0065010744
000230 f3 e9 a9 3d c1 f1 83 bd 46 93 8a bd 5f ac af 3d
       0.082965754 -0.06442595 -0.067663714 0.08577799
000240 e0 41 a6 bc cb fb ab 3d dd 02 c2 3d b1 31 84 3d
       -0.020295084 0.08397635 0.094732024 0.064547904
000250 2d 66 04 3d 75 2c 6a 3d af 52 03 bd cf 1f b9 3c
       0.032324005 0.057171304 -0.032061275 0.022598175
000260 57 3f 84 bd 74 78 67 bd eb 74 4e 3d b4 97 2f bd
       -0.064573936 -0.056511357 0.05040447 -0.042869285
000270 3a 67 27 3d e8 bc 09 bd fc 1a 85 3d 9a 51 0d 3d
       0.04086993 -0.03362742 0.064992875 0.03450165
000280 d0 05 93 bd c1 ff 65 bd 80 3d 44 bd fa 79 46 bc
       -0.07178843 -0.05615211 -0.047910213 -0.012114042
000290 95 b1 58 bd e3 c8 50 3c 41 97 82 bd 5d 75 a4 3d
       -0.05290373 0.012743208 -0.06376506 0.08030198
0002a0 f3 91 89 bd 9e 9a 61 bd 71 cf d0 bc c8 bd ee bc
       -0.06717291 -0.055079095 -0.02548954 -0.02914323
0002b0 29 c3 33 bd 4b 09 79 3d f5 f2 b8 3d 89 f5 71 bd
       -0.04388729 0.060799878 0.090307154 -0.05907205
0002c0 f3 43 93 bd 98 47 27 bd b1 18 74 3c 61 aa 89 bd
       -0.07190695 -0.04083976 0.014898465 -0.0672195
0002d0 92 01 37 bd b7 c2 a7 3d 34 5d 94 39 93 6f 05 3d
       -0.044679232 0.08191436 0.00028298202 0.03257711
0002e0 64 c3 89 bd ec ee 75 3d 6a 77 a7 3d b2 29 f9 3c
       -0.06726721 0.060042307 0.08177073 0.03041539
0002f0 7f ca 03 bd 47 02 29 3d 9b ea 84 3a 61 7b 9e 3d
       -0.032175537 0.041261937 0.0010140719 0.077383764
000300 66 1e 88 bc 8c 79 8c bc a6 c9 c8 3c 76 10 8e 3d
       -0.016616058 -0.017147802 0.024510216 0.069367334
000310 9c 19 8c 3d 32 a9 71 3c 85 71 d0 3d 7a 45 ec 3c
       0.06840822 0.014749812 0.10177902 0.028841723
000320 b4 91 b2 3c 6b 93 96 3b d9 40 9c 3c 76 18 b8 3c
       0.021797992 0.0045952103 0.01907389 0.022472601
000330 f8 88 49 bd 47 27 80 bd f0 20 2c 3d 29 0f c8 bc
       -0.04920289 -0.062574916 0.0420236 -0.024421291
000340 4a 19 a3 3c 21 8b d8 3c 67 eb 0e 3d 99 76 b1 3d
       0.01990952 0.02643353 0.034892466 0.08665199
000350 64 de 5d 3c f4 6e b6 3c 1b a6 07 bd 2e b3 bd bc
       0.013541792 0.022269703 -0.033117395 -0.023156729
000360 d2 05 fe bc 87 5d a5 3c ac f2 59 bd 32 6e a9 3d
       -0.031008635 0.020186199 -0.053209946 0.08272971
000370 6b ea 07 bc e2 43 40 3d 2b ec e6 bb cb 24 ed 3b
       -0.008295636 0.046939738 -0.0070471964 0.007237052
000380 2f 55 90 3c 6a ae bf 3d 44 0e d6 bb 4f 1b 08 bd
       0.017618744 0.09359439 -0.0065324623 -0.03322917
000390 e5 09 9a bc de a9 28 3d 20 ec 80 3b 4b 85 41 bd
       -0.018803546 0.041177623 0.0039343983 -0.04724626
0003a0 89 9e 03 3d 19 33 cd bc c9 95 18 3d 35 43 ac bc
       0.032133613 -0.02504878 0.03725222 -0.02102814
0003b0 44 af 04 bd d5 36 4c bc de bd 98 3d 49 03 be 3d
       -0.03239371 -0.012464245 0.07458089 0.0927797
0003c0 2e 39 73 bd a9 d7 81 3d 73 13 0c bd b6 5d 88 3d
       -0.059380703 0.06339962 -0.034198236 0.06658499
0003d0 6b 9b a5 3c e8 39 a0 3c ab d9 9a 3d 0b 90 30 3d
       0.02021571 0.019558862 0.07561048 0.04310612
0003e0 87 de 48 bd 3c 95 8c 3c fa 38 b5 3d 4b e3 d6 b8
       -0.049040344 0.017161004 0.08848758 -0.00010246652
0003f0 86 80 c7 3c de 19 8c bc 2a 2f 69 3d a0 09 0e bb
       0.024353277 -0.017102178 0.056929745 -0.0021673217

lstm.weight_hh_l0 f4 [512, 128]
000000 81 4e 43 3d 7a 5a 35 3d 57 00 bf bd 6a 07 64 bd
       0.04768229 0.04427574 -0.09326237 -0.055671133
000010 b5 54 b6 bd 02 c8 14 3d b1 c9 3b 3d 6f d7 2b 3d
       -0.08902875 0.036323555 0.045846645 0.0419535
000020 22 e1 e6 3c 9f 72 61 bd d8 f0 44 3d cc 3f 5d 3b
       0.028183524 -0.05504095 0.04808125 0.003375995
000030 2c 59 7e bd 54 15 c7 3c 13 d5 88 3d 9e e9 05 bd
       -0.06209676 0.024302162 0.06681266 -0.032693498
000040 3f 8c 90 bb 8d 40 a4 bd aa c9 ae 3c d9 0d 0e bd
       -0.00441125 -0.080201246 0.021336395 -0.034681175
000050 a0 8c b6 3c 9f 76 ad bd c3 da cc bd 46 47 09 3d
       0.022283852 -0.08469891 -0.10002663 0.033515237
000060 29 e8 d4 3d c5 a8 01 bd ad 57 c1 3d c3 8a a4 3c
       0.103958435 -0.03165509 0.09440551 0.020085698
000070 86 7b 3e bd b3 d3 74 3c 7d b8 35 3d ba 6a fa bc
       -0.04650452 0.014943051 0.044365395 -0.03056847
000080 e0 fe 85 bd d6 df cb bc 6a 14 02 bb 2b cc 9c bc
       -0.06542754 -0.024887007 -0.0019848594 -0.019140324
000090 24 96 8a 3c 8a 57 bc 3d 5d 1a df 3c 28 0b 86 3d
       0.016917296 0.09196384 0.02723425 0.06545097
0000a0 2c 2d 34 bb 8f 26 fc bc de b1 83 3d d2 97 34 3d
       -0.0027492745 -0.030780105 0.0643041 0.0440901
0000b0 be 6c d2 3d 03 48 b1 3d 92 22 f6 bb 11 22 cf bd
       0.10274647 0.08656313 -0.0075114453 -0.101139195
0000c0 2b 7f 54 bd eb fa b6 bb fa 78 c8 b9 73 a3 96 3b
       -0.05187909 -0.005584111 -0.00038237107 0.0045971214
0000d0 5d cd d3 bd 47 0b 34 bb 9c a5 87 3d fa 3a 89 bb
       -0.10341904 -0.0027472542 0.06623384 -0.0041879388
0000e0 be af 87 3d 94 35 04 3c 31 78 3a 3d 99 1a da 3c
       0.06625317 0.008069415 0.04552478 0.02662401
0000f0 df 1f 45 bd 03 79 c3 bc 7f 87 68 bd 88 63 a3 bd
       -0.048126098 -0.023861414 -0.056769844 -0.079779685
000100 39 be 57 bd 01 7f 16 bc 6d 1b e8 bd aa 4d 7f bd
       -0.052671645 -0.0091855535 -0.11333356 -0.062329926
000110 5d e1 c8 3c 9e d2 6a 3d 18 47 7a 3d 58 6b b0 bc
       0.024521524 0.057329766 0.061102957 -0.02153556
000120 f6 aa 6f 3d 93 1b 8a 3d ef 07 85 3c 37 c4 99 3d
       0.05851265 0.067435406 0.016239135 0.07508128
000130 c9 32 ab 3d 84 8f b9 bc c0 d8 c3 3c 4e 02 c8 3d
       0.08359296 -0.022651441 0.023907065 0.097660646
000140 87 38 18 3d 1c 2e 86 bc 28 78 41 3c 10 24 4f bb
       0.037163284 -0.016379409 0.011808433 -0.0031607188
000150 c5 85 8c 3d 53 f2 bc bb e7 78 fa bc 2a 9a 31 3d
       0.06861452 -0.005766192 -0.030575229 0.043359913
000160 77 f4 1d 3d 45 e5 e2 3c 9e d6 55 3d aa cc 8c 3d
       0.038563218 0.027697215 0.052206628 0.06874974
000170 5a 64 f4 bc 14 e3 ce bc bf 6e 21 3c 27 5f f6 bd
       -0.029833008 -0.025254764 0.009853064 -0.120298676
000180 8a 6d 20 3d f4 55 45 bd e6 83 e6 ba 6c cd 0c 3d
       0.039166965 -0.048177674 -0.0017586916 0.034375593
000190 b8 15 e0 3d ac dc 97 3c 14 c0 49 bd 28 1c 4b bc
       0.109416425 0.018537842 -0.049255446 -0.01239685
0001a0 35 ba ba bc 62 1e 86 3d 3a 7e 66 bb df 10 d0 bc
       -0.022793869 0.06548764 -0.0035170452 -0.02539867
0001b0 9c c6 f4 3c 2c c0 cc bd f1 cd c0 3d d7 bd 7c 3d
       0.02987986 -0.099975914 0.0941428 0.061704483
0001c0 2e 83 a4 bd 02 64 e5 bc 6a 14 61 3d d2 76 95 3c
       -0.08032833 -0.028001789 0.05495111 0.018245135
0001d0 1e 16 9f 3d db 8d 67 bd cf 6c 10 3d f2 08 36 bd
       0.077678904 -0.05653177 0.035260018 -0.044442125
0001e0 d8 c2 0f bd ea ee ca 3d 41 ea 96 3d cb 5c 75 bd
       -0.035097927 0.099088505 0.07368899 -0.059902947
0001f0 f3 39 f3 bc c7 37 38 3c 57 42 e2 bd bc 07 0e bd
       -0.029690718 0.011243767 -0.110478096 -0.034675345
000200 8a 12 a2 3d cd 51 aa 3c 9b d5 ef 3c ef fa 8c 3d
       0.07913692 0.020790959 0.02927666 0.06883799
000210 32 af 7d bd f7 8d ba bc d2 3f 6c 3d 81 e8 1d bd
       -0.061934657 -0.022772772 0.05767805 -0.03855181
000220 2b ea 38 3c 36 1e d1 bd 76 c3 97 3d 94 b9 9c bc
       0.011286299 -0.102108404 0.07410328 -0.01913146
000230 6b 10 84 bd 4c 6e 44 ba 2b 9d 7f bd e1 5d 6e bd
       -0.06448444 -0.0007493242 -0.062405746 -0.058195
000240 d9 95 b1 bd d5 f3 12 3d e4 07 50 3d cf e4 bc bd
       -0.08671159 0.035877068 0.050788775 -0.09223329
000250 07 f6 ea 3c 2b d6 b0 bd a9 25 dc bd 44 89 b1 38
       0.028681768 -0.08634599 -0.107493706 8.4655854e-05
000260 15 dd b0 3d f4 c5 0c 3d 3f c1 80 3d b0 be 6b 3c
       0.08635918 0.03436847 0.06286859 0.014388725
000270 83 52 0c 3d 07 cc 99 bc 07 c1 07 3d b9 b7 40 bd
       0.034258377 -0.018774046 0.03314307 -0.04705021
000280 b4 46 be bc d0 e4 8c bd d8 a9 d7 bc ee d3 8b bd
       -0.023227073 -0.0687958 -0.026326105 -0.06827532
000290 47 6d 79 bd 83 70 83 bd 15 5d db ba 54 e6 40 bc
       -0.06089523 -0.06417944 -0.0016736115 -0.0117736645
0002a0 b0 8d 8a bd 3f 43 c7 3d f7 b7 81 bd 10 0f b8 bd
       -0.06765306 0.09729623 -0.06333917 -0.08987248
0002b0 77 ec 4b bb 82 2a 3b bd c9 8a 66 3d 65 3a 1b bd
       -0.0031116286 -0.045694835 0.0562847 -0.037897486
0002c0 8d 6b bf bd ed 7e 8d 3b 64 35 9d 3b f2 03 2c bb
       -0.093466856 0.0043181092 0.0047976244 -0.0026247469
0002d0 fd dc 3e 3d b9 22 99 3d 19 5d ad 3d eb ca 49 bc
       0.04659747 0.07477326 0.084650226 -0.012316446
0002e0 e7 a2 0c 3d 47 86 c2 bc 63 40 10 bd a7 b2 9f bd
       0.034335043 -0.023745669 -0.035217654 -0.07797747
0002f0 13 de ac 3d 3f 89 a2 bd cc cb 43 bd 44 fc 62 3d
       0.08440795 -0.07936334 -0.047801778 0.05541636
000300 3e 0a c3 3c a9 f1 95 3d 69 2f 89 ba c4 5f 3f bd
       0.023808595 0.07321484 -0.00104664 -0.04672219
000310 19 c5 92 3c 31 c7 c0 bd 91 a1 5e 3d 29 d6 0b 3c
       0.01791625 -0.09412993 0.0543533 0.0085349465
000320 d5 e4 3b 3d 78 d7 5c bd f8 d2 8c bc 28 1f 4d 3d
       0.045872528 -0.053916425 -0.017190441 0.05007854
000330 b0 52 d8 3d 96 e9 2c bc 26 43 22 bb 7f 87 8d 3b
       0.105626464 -0.010553738 -0.0024759262 0.004319131
000340 83 17 77 3d a4 ef 43 bc b6 aa aa 3d c9 58 54 bd
       0.060325157 -0.01195899 0.08333342 -0.051842485
000350 2b 01 8e 3d 5d d4 19 3d 32 14 a9 bd 31 54 19 bd
       0.069338165 0.03755604 -0.08255805 -0.037433807
000360 ed bf 08 3d 26 cb b9 bd ee db ce bd fc 2f 6a bd
       0.03338616 -0.090719506 -0.10100542 -0.057174668
000370 cb 9f 65 3d bc 45 b9 b8 f9 8d e4 3b 43 ae f3 bc
       0.056060594 -8.8344765e-05 0.0069749323 -0.02974618
000380 ff cc e0 3d 59 f2 ba bc 29 7a a1 3d 0b 59 19 bd
       0.109766 -0.022820638 0.07884628 -0.037438434
000390 1a 75 8d bc 50 ec ad bb 14 1e 4e bd 1b 81 0f 3d
       -0.017267752 -0.0053077117 -0.050321653 0.035035234
0003a0 7e 0c c4 ba 47 51 72 3d 8a 36 9f 3c 93 26 0c bc
       -0.0014957336 0.059159543 0.019435186 -0.008554119
0003b0 06 05 a7 bd 3f d1 de bc 49 e0 83 3d 45 40 00 b9
       -0.08155255 -0.027199386 0.064392634 -0.00012230974
0003c0 62 cc 4e 3d 1b 22 d7 3d 18 c9 be bd 8c bc 3b 3d
       0.050487883 0.10504552 -0.09315699 0.04583411
0003d0 f2 7b 85 3d ef 67 6f 3d c5 8e 93 bb fd 22 31 3c
       0.06517781 0.05844873 -0.0045031034 0.0108115645
0003e0 2b c2 a9 3d 31 2c 9c bc ed e7 d4 bc e0 d6 2a bd
       0.08288988 -0.01906404 -0.025989497 -0.041708827
0003f0 da 21 33 bc 04 e7 42 bd bd 61 5f bd ca 0c 16 bd
       -0.010933364 -0.047583595 -0.05453657 -0.03663329

lstm.bias_ih_l0 f4 [512]
000000 c5 1c 23 bd 6c c6 b3 3d fb 00 4f 3d b4 37 bb 3d
       -0.03982236 0.0877808 0.050538044 0.09141484
000010 ae 1f 0c 3d 68 2a 75 3c c7 e5 48 3d 85 ae ce bb
       0.0342099 0.014963724 0.049047258 -0.0063074254
000020 d4 45 4f 3d 3b fb 8e 3d d6 b9 b8 3d e1 b0 e7 3d
       0.050603703 0.06981512 0.090198204 0.11313034
000030 7a cb d2 3d 18 40 c2 3d 84 8a 66 3c 86 4c e1 3d
       0.10292716 0.09484881 0.014071111 0.11000924
000040 8b 36 1d 3c 83 f4 77 bc 0b c1 0d 3d 8d 91 ed 3b
       0.009595524 -0.01513398 0.03460793 0.007250017
000050 a1 f8 68 3d 97 8f 64 3d 4c 14 d3 3d f7 00 94 bb
       0.056877736 0.055801 0.10306606 -0.0045167166
000060 e2 ae e0 bc 4e 3b 12 3d 4b bd dd 3d 89 5f 47 3d
       -0.02742714 0.03570109 0.108271204 0.048675094
000070 47 2a 45 3d e1 15 ca 3d 0a 42 fb bc 1e cf 2e 3d
       0.048136022 0.09867454 -0.030671138 0.04267799
000080 46 11 2b 3d 7f f1 6f bd 29 92 8f bc f5 7c a0 3d
       0.04176452 -0.058579918 -0.01752575 0.07836334
000090 9a 36 d5 3d 72 cd 6e 3d bb f7 4f bc 35 dc 01 bd
       0.10410805 0.058301397 -0.012693341 -0.031704146
0000a0 50 6e 89 3d 26 93 cf b9 4c ae cb 3d fc 5d d5 bc
       0.067104936 -0.0003959175 0.09945354 -0.026045792
0000b0 4c 47 d4 3d c9 99 c5 3d 26 65 2b bc b4 07 14 bd
       0.10365161 0.09648473 -0.010461127 -0.03614016
0000c0 ff d4 58 bd 70 eb de 3d 15 ab e2 3d 43 1c 3b 3c
       -0.052937504 0.1088475 0.110677876 0.011420312
0000d0 7f 07 17 bd f9 f1 a1 bc db e5 02 3d 2a 04 f0 bc
       -0.036872383 -0.019768702 0.03195749 -0.02929886
0000e0 05 58 ab 3d 94 4a 85 3d 03 a6 23 3d 2a 59 1c bd
       0.08366398 0.06508365 0.039953243 -0.03817097
0000f0 cd c2 7c bd 27 be d3 3d 4b c5 97 bc 94 aa 62 3c
       -0.061709214 0.10339003 -0.018526694 0.013834614
000100 55 e3 07 3d 16 2b 67 bd ff 03 1d 3d 6c 15 ca 3c
       0.033175785 -0.056437574 0.03833389 0.024668418
000110 ea 51 c2 3c e3 c9 59 bd 24 bd ca 3d d3 4c a3 3d
       0.0237207 -0.05317105 0.09899357 0.079736374
000120 3b 0e 01 bd ef b0 9e 3d 3c 35 d6 3d 1c c0 8a 3d
       -0.03150771 0.07748591 0.104593724 0.06774923
000130 82 4f 00 3d 7d 09 d8 3d 2a 9b 03 bd 8a e2 21 bd
       0.031325825 0.10548685 -0.032130398 -0.039522685
000140 bf 86 b4 bc 93 bf 13 bd 89 0a 7c 3d 99 59 8e 3b
       -0.022036908 -0.03607137 0.061533485 0.004344177
000150 73 9b 4b 3c 41 a6 82 3d 3d 07 43 3d 0b 13 9e 3d
       0.012427199 0.06379367 0.047614325 0.07718476
000160 9d bf d2 3d 72 b9 da ba c9 a7 70 bd 0a 1a b3 3d
       0.102904536 -0.0016687347 -0.058753762 0.08745201
000170 6c 87 1d bd 5c 22 c9 ba 34 cd 6b 3a 7a 52 87 bd
       -0.038459226 -0.0015345323 0.0008995116 -0.06607528
000180 07 fe c9 bc e7 53 fe bc 2d 73 b3 bb 6d 46 0c bc
       -0.024657262 -0.031045867 -0.0054763765 -0.008561713
000190 05 ca 8c bb a8 b7 6f 3d 14 c5 59 3d da 20 0f bc
       -0.0042965435 0.058524758 0.053166464 -0.00873586
0001a0 95 f7 86 bd 8d 9d 11 bd c2 1d 1d bd 06 d2 67 bd
       -0.06590191 -0.035550643 -0.038358457 -0.05659678
0001b0 00 0c e7 3b 67 59 60 ba 10 9c e3 3c 32 a1 7c bd
       0.007050991 -0.0008558244 0.027784377 -0.061677165
0001c0 69 b4 c9 bc 10 1c a0 3d 84 06 2f 3d e5 2e b6 3d
       -0.02462216 0.078178525 0.042730823 0.08895663
0001d0 a1 d3 53 bd ea 83 48 bd 53 91 d8 3c fd 9c 37 3d
       -0.051715497 -0.048953928 0.026436483 0.04482745
0001e0 cc e9 5c bc ef 8d 1a bc 17 55 cb 3d b4 b1 6f bb
       -0.013483476 -0.009433254 0.09928339 -0.0036574425
0001f0 d2 a3 ca 3c 47 35 b5 3d 89 63 a6 bc 44 03 85 3d
       0.024736319 0.088480525 -0.020311134 0.064947635
000200 03 b1 ba 3d f7 7e 5c 3b 1a d0 09 3d 1c cd 1b bd
       0.091157936 0.0033645013 0.033645727 -0.038037404
000210 e2 1a ce 3b 1a 67 83 bd e0 f8 cd 3d be 85 7a bc
       0.006289826 -0.064161494 0.10057235 -0.015290676
000220 5e f0 87 3d f1 85 63 3d c4 40 34 3d 34 4c a3 3d
       0.06637643 0.05554766 0.044007078 0.07973519
000230 f7 df a6 3d 33 ff 9c 3c 20 53 df bc 7d 92 9d bc
       0.08148187 0.019164657 -0.027261317 -0.01923489
000240 6c 24 2c 3d cd 15 27 3b 41 53 c9 3d 18 41 5f bd
       0.042026922 0.0025495172 0.098303325 -0.054505438
000250 61 15 ac 3d 40 a0 e4 b9 3b 8b 2a bd 7b 83 8f 3d
       0.08402515 -0.00043606944 -0.041636687 0.070075
000260 e6 92 60 3d 9e 96 5d bd 1b fb aa 3d 90 c6 49 3d
       0.054827593 -0.054098718 0.08348676 0.04926163
000270 81 f1 f8 3c b4 13 56 3d ea 5f 79 bd f2 38 0a 3d
       0.030388596 0.052264884 -0.060882486 0.033745714
000280 d4 fa 4f 3b b4 a5 bd bc 6b 5b 6f 3b f9 66 d9 3c
       0.0031735199 -0.023150302 0.0036522995 0.026538359
000290 25 bc 66 3d 8c 25 91 3d 81 14 55 3d 90 92 9e 3d
       0.056331772 0.070872396 0.052021507 0.07742798
0002a0 c9 40 9e bc ea 5c e7 3c ed d0 68 bb a8 51 48 bd
       -0.019318001 0.028242547 -0.003552492 -0.048906
0002b0 41 ab 2d 3d 38 4a 6f 3d 4d 0f 7b 3d 5c eb 45 3d
       0.04239965 0.05842039 0.06129389 0.04832016
0002c0 93 06 a4 bc 59 b0 8b bc 64 78 e2 3d cd 28 a4 bc
       -0.020022666 -0.017051863 0.11058119 -0.020038987
0002d0 e3 8d 72 bd 0c 2f 79 bc 15 46 a0 3d 7d 4c c6 3d
       -0.059217345 -0.015208971 0.07825867 0.09682558
0002e0 25 23 29 3c a6 15 57 bd c9 e9 26 bc 5e 8a bc bc
       0.0103233205 -0.05251088 -0.010187575 -0.023015197
0002f0 d6 7f 16 bd 90 0e 40 39 c3 2a a1 3d 3d 4e 0d 3b
       -0.036743008 0.00018315972 0.07869484 0.0021561526
000300 76 a7 54 bc 17 3d 4e 3d 7e b2 f0 bc 6a 06 cd bb
       -0.012979379 0.05035123 -0.029381987 -0.006256868
000310 2c e3 7a 3d 62 3a c3 3d 0f 7e e7 bc b1 13 f5 bc
       0.061251804 0.0953262 -0.028258352 -0.029916616
000320 a7 21 6f bd 73 8e cc 3d f1 ee 89 bd cc 98 8d bd
       -0.058381703 0.099881075 -0.067350276 -0.06913909
000330 23 44 51 bd a5 61 51 3d 63 6c 8c 3d fa f5 08 3d
       -0.05109037 0.05111851 0.068566106 0.033437707
000340 f9 3a 5e 3d c3 4c c5 3d 2e 5c ae 3d 30 21 d0 3d
       0.05425546 0.09633782 0.08513676 0.1016258
000350 3b f0 1f bd 92 04 ca 3d a1 24 52 3c e8 77 68 3c
       -0.03904746 0.09864153 0.012826116 0.014188744
000360 f5 1a 16 bd b0 66 ac 3d 8f 0a 65 bd 3d 16 ac 3d
       -0.036646802 0.084180236 -0.055918273 0.08402679
000370 bd be e5 3d 6b 8f 85 3d 59 8a 39 3c 2f f1 02 3c
       0.11218021 0.065214954 0.011324489 0.007992073
000380 30 13 dd 3d f6 be 4d 3c 50 ef e6 3c 57 58 2f bd
       0.10794675 0.012557736 0.028190285 -0.042808857
000390 9f 30 6c bd c5 f4 d2 3d 96 c0 1b bd fe 8f 61 3d
       -0.057663556 0.10300592 -0.03802546 0.055068962
0003a0 65 44 8c bc c1 49 d2 3d 4b c1 8a 3d 79 c5 a0 3c
       -0.017122457 0.10267974 0.06775149 0.019625412
0003b0 34 7a 28 bd a1 7e 9e 3d 90 24 83 bc 9d f9 86 3d
       -0.041132167 0.07738996 -0.016008645 0.06590579
0003c0 fd f8 d5 3d 0b 3e 78 bd dd 4c 62 bd 95 e5 99 3d
       0.10447881 -0.060606044 -0.055249084 0.075144924
0003d0 3f ee a8 3c e9 3f 81 3d 1b 03 5d bd 8f 12 01 bd
       0.020621417 0.06311018 -0.05395804 -0.03151184
0003e0 33 59 19 bc 2e c6 91 3b 04 99 80 3d cf 92 c2 3d
       -0.009359646 0.0044486737 0.062791854 0.09500658
0003f0 ed 89 ee 3c dd 17 9b 3d 9b d0 84 bd 21 ec 7e 3c
       0.029118503 0.07572911 -0.06485101 0.015559227

lstm.bias_hh_l0 f4 [512]
000000 61 a2 23 bd 62 29 f5 bc 65 3e 3a 3c 2a 47 75 3c
       -0.03994978 -0.02992696 0.011367415 0.01497058
000010 1b 84 93 3c e3 10 ea 3c be 7f b3 3d 7c 18 b5 3d
       0.018007329 0.028572505 0.08764599 0.08842561
000020 99 e0 b5 bb ac 5c dc bc 47 ac 08 bd 1d f5 38 3d
       -0.005550456 -0.026899658 -0.03336742 0.045155633
000030 00 a1 48 3d a6 a9 6b 3d 97 cc 59 3d a1 12 52 3d
       0.048981667 0.057534836 0.053173628 0.051287297
000040 93 b4 4f 3d 88 bc c2 3d 00 e9 50 bd cc 23 43 bc
       0.05070932 0.09508616 -0.051003456 -0.01191039
000050 99 ec 6a 3d 1a 1b 84 bd e1 2a d6 3c 7f 6d 1a bd
       0.057354543 -0.06450482 0.026143493 -0.03770208
000060 f4 f5 a3 3d ff 89 c8 bc ff 78 58 bd 82 5c b4 3a
       0.08005896 -0.024479864 -0.052849766 0.001376048
000070 28 ae 9d 3d 77 b2 a6 3d 7f 48 39 bc 9c 11 26 3d
       0.07699233 0.08139508 -0.011308788 0.040544137
000080 ec 0d 69 bc d5 d5 d9 3c ed 20 68 3d 62 d0 f3 3c
       -0.014224511 0.02659122 0.056672025 0.02976245
000090 4f 0b 57 3d e4 c8 f9 3c 0c e7 99 3d 28 58 81 3d
       0.05250102 0.0304913 0.07514772 0.063156426
0000a0 09 a7 93 bc 15 cd c1 3d 13 ab 27 3c 76 3a 46 3d
       -0.018023985 0.094629444 0.010233658 0.048395596
0000b0 de 99 1b 3d bb 4f 0c 3d 03 5c b1 bc 34 4d 63 3b
       0.037988536 0.034255724 -0.02165032 0.0034683468
0000c0 bc 21 91 bc 23 6d 91 bc 49 fc bc 3d 46 5a 2e 3b
       -0.017716281 -0.017752236 0.09227807 0.00266041
0000d0 53 2a a3 3d 17 1a 09 bd 18 4a a9 3d 72 ed bc 3d
       0.07967057 -0.033472147 0.082660854 0.092249766
0000e0 59 74 b9 3d 42 93 83 3c 2f e1 82 3d 53 19 62 3d
       0.09055395 0.016061429 0.063906066 0.055199932
0000f0 c2 d1 2f 3d 28 ee 67 3a 5d 54 cf 3c de 02 b4 3d
       0.04292465 0.0008847439 0.025308782 0.087896094
000100 85 41 94 bd 5d c4 52 3d bd 55 ec 3c c5 05 27 bc
       -0.07239059 0.051456798 0.028849477 -0.010194247
000110 48 b8 52 bb c5 d7 5c 3d 10 1d d6 3d dd a2 39 bb
       -0.0032153297 0.05391671 0.10454762 -0.0028325834
000120 20 96 b2 b9 60 2a e5 3d 10 f4 94 3d 59 9d 69 bd
       -0.00034062658 0.11189723 0.07273114 -0.057034824
000130 fc 03 6e bd a7 42 47 3d 4d cf 20 3c ed 08 de 3d
       -0.05810927 0.04864755 0.009815049 0.10841546
000140 b6 5e a0 3c f0 e8 d2 3d 12 62 71 bd f1 05 dd 3d
       0.019576412 0.102983356 -0.058931418 0.10792149
000150 90 68 b5 3d 68 89 2c 3c 02 74 bb 3d 0f 2d 7e 3d
       0.08857834 0.010530807 0.09152986 0.06205469
000160 a9 db ca 3d ad 31 50 bd 57 b4 c2 3d 2d 3c 40 3c
       0.09905178 -0.050828625 0.09507053 0.011733097
000170 7a fc 85 3c 49 5c 02 3c 98 b9 53 3d 71 06 2f 3d
       0.016355742 0.007956573 0.051690668 0.042730752
000180 63 de ac 3b d1 3e 77 bc 3b 50 7f bc 84 d9 00 bd
       0.005275534 -0.01509066 -0.015583093 -0.03145744
000190 07 c7 26 3d 5c a2 67 3d ba b5 ce bc 8e 63 dc bc
       0.04071715 0.056551322 -0.025233138 -0.02690294
0001a0 d4 45 31 3d 7a 19 33 3c f7 76 21 3d 52 a6 da 3c
       0.043279484 0.010931367 0.039420094 0.026690636
0001b0 d1 5b 6f bd 33 a9 be 3d 7e 26 7d bd 66 7f 3b 3d
       -0.058437172 0.09309616 -0.061804287 0.045775793
0001c0 7c d9 b4 3d 83 1f c2 3d 3e 25 cb 3d 1f 1d d8 3d
       0.08830544 0.09478667 0.09919213 0.105524294
0001d0 b8 73 87 3d 25 64 ec 3c b2 53 85 bd f8 7f 94 3c
       0.066138685 0.028856346 -0.06510104 0.018127427
0001e0 a2 e4 85 3d 19 aa e4 bc 4a c2 bd 3d d1 53 88 bc
       0.06537749 -0.02791314 0.09265573 -0.01664153
0001f0 4e 03 e2 bc 11 0f fe bc 9a 2f 29 3c fd 03 44 3d
       -0.027589466 -0.031013044 0.0103262905 0.047855366
000200 8d f5 97 3d c3 f8 71 3d c6 19 1b 3d e4 42 88 3b
       0.07419882 0.05907513 0.037866376 0.0041583646
000210 7d dc 8d 3d 44 ef 88 3d 94 19 35 bd e9 31 80 3d
       0.069268204 0.06686261 -0.044213846 0.062595196
000220 6e e8 b2 3c 24 dc a1 3c 91 b2 71 bc 65 99 c4 3d
       0.021839347 0.019758292 -0.014752046 0.0959957
000230 0f 81 72 bd 64 56 af 3d da f4 9c 3d e3 67 6b 3d
       -0.05920511 0.085613996 0.07663889 0.05747212
000240 09 70 a5 3a 18 41 b5 3d c4 c7 33 bc a3 88 11 bd
       0.001262189 0.08850306 -0.010972921 -0.035530698
000250 4e d5 1f bd a7 94 67 3d a6 b6 a9 ba 8d 85 83 bb
       -0.039021783 0.05653825 -0.001294811 -0.004013723
000260 f2 eb 7f 3d 2a a5 3f 3c 7a f3 d4 bb 28 b1 bf bc
       0.062480874 0.011697093 -0.006498751 -0.023399904
000270 98 1a 43 3d ef c8 d0 3d 0d 02 c9 3d 92 8d 99 3d
       0.047632784 0.10194575 0.09814844 0.074977055
000280 67 6a bb 3c 06 dc d3 3d 9a c6 b2 3d 22 98 48 bc
       0.022877885 0.103447005 0.087292865 -0.012243303
000290 8e 0a 3f bd 69 54 9a 3d 86 5b 04 bc 67 ee 53 bd
       -0.046640925 0.07535631 -0.0080784615 -0.05174103
0002a0 ba 4c bf 3b e6 9f 36 bd 4c 42 d6 3d f2 a6 a2 3d
       0.005838004 -0.044586085 0.10461864 0.079419985
0002b0 84 87 2e bd 58 74 f7 b8 17 96 6d 3d 1e 94 84 3d
       -0.042609707 -0.000117995485 0.058004465 0.064735636
0002c0 6b dd 6c bd c5 fc dd 3b b5 47 17 3d 83 1c 88 3d
       -0.057828348 0.0067745172 0.03693362 0.06646063
0002d0 61 d5 71 3c e9 ab c7 3c 6d 93 f9 bc 1d 33 7d 3d
       0.014760346 0.024373965 -0.030465806 0.061816324
0002e0 e4 f2 8d 3d 29 a2 17 bd 45 fd 1d 3d 29 25 a4 bc
       0.06931093 -0.037019882 0.038571615 -0.02003725
0002f0 56 8c c7 3a 80 38 8c 3d e1 46 4e bc d6 bf 95 bc
       0.0015224318 0.06846714 -0.012590141 -0.018279951
000300 9e 31 aa 3d f3 c9 63 bd a5 f1 55 bd d0 56 ff 3c
       0.08310245 -0.055612516 -0.052232403 0.031169325
000310 4b ca 67 bd 9c 81 27 3d 7b 01 1a 3d 4a 4f 37 3c
       -0.056589406 0.04089509 0.037599068 0.011188338
000320 c1 47 54 3c 21 c0 a6 3c 0a 98 a4 3d b9 f2 88 bd
       0.012956561 0.020355286 0.08036812 -0.06686921
000330 99 9b 40 bd 85 c5 95 3d 81 58 78 bc a2 ec 58 3d
       -0.04702339 0.073130645 -0.01515782 0.052960046
000340 21 b7 40 bd e1 2d 55 bd 62 21 a0 3d 8b 65 fb 3c
       -0.047049645 -0.052045707 0.07818867 0.030688068
000350 ec e8 e9 bc 2e 05 7b 3d b9 01 ba bc 5b 14 b2 3c
       -0.028553449 0.061284237 -0.0227059 0.021738222
000360 95 ff 5f bd 79 63 5a bd d8 bd 49 bd 83 88 5f bd
       -0.0546871 -0.05331752 -0.049253315 -0.054573547
000370 6b cc c1 3d c2 55 bc 3d c1 af 27 bb e7 58 65 bc
       0.09462818 0.091960445 -0.0025586935 -0.013998247
000380 63 6f 85 3d dc 76 08 3d c6 eb 59 3d 06 13 b7 3d
       0.06515386 0.033316478 0.053203367 0.08939175
000390 4f ec 68 bd 8e b7 37 3d 98 16 af 3d 2c b6 63 bd
       -0.056865986 0.044852786 0.08549231 -0.055593655
0003a0 b8 8c 0a 3c 31 db 93 3d ef ee 4d bd 6f bc 2b 3d
       0.0084564015 0.07219542 -0.050276693 0.04192775
0003b0 38 2f 14 3c 5b 6a ff 3c 1d 1b 81 3d 8d 9d aa 3c
       0.009044461 0.031178644 0.063039996 0.02082708
0003c0 49 93 a2 3d ed 98 5f 3d 24 b3 ae 3d ff 8a f5 3c
       0.07938249 0.0545892 0.08530262 0.029973505
0003d0 13 0f cb 3c f6 da 08 3d 05 26 77 3d 9e 48 07 bd
       0.024787461 0.033411942 0.060338993 -0.033028238
0003e0 bf 71 25 bd d1 e9 92 bd cf bd c4 bb b3 18 3d 3c
       -0.04039168 -0.07173503 -0.0060040723 0.011541533
0003f0 ad 44 2b bd aa 5d 65 3c 43 6b 84 3d 97 68 1b 3d
       -0.04181354 0.013999382 0.06465771 0.03794154

fc.weight f4 [1, 128]
000000 96 5a 00 3f 17 a4 fc 3e 88 aa 02 bf 41 8b 08 bf
       0.50138223 0.4934394 -0.5104146 -0.53337485
000010 38 5b 04 bf dd 86 e9 3e 4b a9 07 bf 2c c7 08 3f
       -0.5170169 0.45610705 -0.52992696 0.5342891
000020 80 8f e8 be 63 83 02 bf a2 14 ed 3e 50 4d 09 3f
       -0.45421982 -0.5098173 0.46304804 0.53633595
000030 76 9e 0e bf e2 12 09 3f 0c 84 08 bf 85 2a 06 3f
       -0.5571054 0.5354444 -0.5332649 0.5240863
000040 f1 13 0c bf d6 1e 01 bf 70 ef 07 bf 32 f2 0d bf
       -0.5471793 -0.50437677 -0.5309973 -0.55447686
000050 87 19 11 3f d6 5a 05 bf ac e7 0b bf 61 67 0d 3f
       0.56679577 -0.5209173 -0.5465038 0.5523587
000060 d9 84 f5 3e 7e 70 f5 be 87 3d 03 3f f0 b0 03 3f
       0.47952917 -0.47937387 0.5126576 0.5144186
000070 b7 d2 e3 be c1 6d e1 3e 53 41 07 bf 4a 39 03 bf
       -0.444967 0.44029048 -0.5283405 -0.5125929
000080 f2 21 05 3f 52 f7 02 3f 1b 1e eb 3e 00 e8 fd be
       0.5200492 0.5115863 0.45921406 -0.49591064
000090 c3 1b 02 bf 86 1c 03 3f 39 02 04 bf 5e 3c 1b 3f
       -0.5082361 0.512154 -0.5156589 0.6063899
0000a0 64 c9 0c 3f 93 b8 ef 3e 48 a7 05 bf 88 ff 0d bf
       0.549948 0.46820506 -0.52208376 -0.55468035
0000b0 3d 49 00 3f a6 b8 0b 3f 04 f3 05 bf 66 68 02 bf
       0.5011175 0.54578626 -0.5232394 -0.5094055
0000c0 0c 6c fd be 9d 81 00 3f f5 05 eb be a1 cd f8 3e
       -0.49496496 0.50197774 -0.45902982 0.48594382
0000d0 e5 b5 0a bf 05 42 05 3f 63 f1 07 3f 2a 0d f0 be
       -0.541838 0.5205386 0.531027 -0.46885043
0000e0 92 a7 e6 be 84 6f 0b 3f 66 74 02 3f e2 fd f4 be
       -0.4504972 0.54467034 0.5095886 -0.47849947
0000f0 4c 6f 04 3f 2b fd 04 bf f7 dd 00 bf b6 60 f7 be
       0.51732326 -0.51948804 -0.5033869 -0.48315972
000100 f0 f0 03 bf 06 d7 f7 3e f3 a1 09 bf 7a fc eb be
       -0.51539516 0.48406237 -0.5376274 -0.46091062
000110 a7 c3 01 bf 42 a9 04 bf e9 fc 05 bf b4 1e f9 be
       -0.50689167 -0.51820767 -0.52339035 -0.48656237
000120 c4 05 fb 3e fe 86 f1 3e 99 ec 0d 3f 64 0d 0c 3f
       0.49027836 0.47173303 0.55439144 0.5470793
000130 22 f8 0b 3f 3a 8d 00 3f b8 23 14 3f 0f ad ff 3e
       0.54675496 0.50215495 0.57867 0.4993672
000140 6c dc ea be 9d 0f 0b 3f 4b 87 05 3f 67 4d 0a bf
       -0.45871294 0.543207 0.52159566 -0.54024357
000150 dd ee f6 be 1a f4 01 3f d9 fb fd be 84 d1 05 3f
       -0.48229113 0.50763094 -0.49606207 0.5227282
000160 0b 24 0e 3f af 25 06 bf 59 8c 09 bf f0 ac 03 3f
       0.5552375 -0.5240125 -0.5372978 0.51435757
000170 68 dc 02 bf ae 82 ff be 4b c0 09 bf 6b cc fd be
       -0.51117563 -0.49904388 -0.5380904 -0.4957002
000180 d2 71 0a 3f 14 d1 ed be 42 9c f6 3e 7f 27 0a 3f
       0.54079926 -0.46448576 0.4816609 0.53966516
000190 af dc 0b 3f e3 91 03 bf 06 13 f2 be 58 ec 0b 3f
       0.5463361 -0.5139448 -0.4728014 0.54657507
0001a0 4f 54 ee be b7 b7 06 bf a8 c6 00 bf 33 1c 09 bf
       -0.46548697 -0.52624077 -0.50303125 -0.53558654
0001b0 d6 8a fc be f9 48 0d bf d1 2b 0e 3f 70 9b 0b 3f
       -0.49324673 -0.5518947 0.5553561 0.54534054
0001c0 f4 a2 fe be bc 61 0b 3f 55 87 01 bf a4 86 f3 be
       -0.49733698 0.54446006 -0.50597125 -0.4756366
0001d0 3b 34 03 3f b6 3c 0b 3f be 10 11 3f 1e 6f 01 3f
       0.5125157 0.5438951 0.5666617 0.50560176
0001e0 21 27 0e 3f a6 b2 e0 3e 9c 34 12 3f 48 e5 ff be
       0.55528456 0.43886298 0.57111526 -0.49979615
0001f0 f0 cc 05 3f d4 9a 0f 3f 68 db 0c bf 8d 94 0c 3f
       0.52265835 0.56095624 -0.5502229 0.5491417
